diablo/models/policy_30.pt (torch, 69256 bytes, 8 tensors)

weight f4 [128, 30]
0.065925606 0.36746195 -0.71803635 0.5914903 0.09892548 0.009450009 -0.22503798 -0.13246524
0.30302706 0.26323515 0.029670905 0.0068584657 -0.08477237 -0.40049508 -0.0070459186 0.049468473
-0.22751181 -0.054253556 0.664842 0.36084136 0.11037725 0.30915663 0.19117251 -0.030651273
0.16179171 -0.23448865 -0.09650984 0.28294262 -0.11491623 0.07248384 -0.2921655 -0.89577377
0.11963726 -0.57412034 -0.12592582 -0.49424225 -0.23758675 -0.24305816 -0.3326584 -0.5122793
-0.26597622 0.005687129 0.43772137 0.8507717 0.014636219 -1.0078146 -0.32385516 0.08450781
-0.25484514 -0.20083536 0.048429415 0.26315594 -0.30066338 0.10295956 -0.121124245 0.084596
-0.061503235 -0.097052455 0.014185164 -0.104203105 -0.26594433 0.142128 0.20642124 -0.5027987
0.28340274 -0.07370582 -0.42502737 -0.05055172 -0.2413389 -0.15540926 -0.14463374 0.010324097
-0.73363435 0.054268256 0.00019488181 0.14422725 0.010951915 0.21878159 0.057102025 0.16156867
-0.032908697 -0.0785388 -0.16380991 0.0005112447 -0.032690637 -0.12447421 0.031632368 0.51801383
-0.12603903 -0.06350081 -0.38146237 -0.5941212 0.7153663 -0.50940377 0.29864353 -0.32919827
0.060660645 -0.17892426 0.1202075 0.75534105 0.029723432 -0.0051596216 -0.3618093 -0.5008202
0.016367031 0.14957216 0.38210264 -0.032028284 0.029399917 -0.4735212 0.2278012 -0.2909213
0.05405721 -0.020060409 -0.30552036 0.09686361 -0.2910934 -0.23855846 0.20001227 0.2888679
-0.038139034 -0.47415936 -0.23552912 -0.2964401 0.020313632 0.12883997 -0.08803812 0.21297322
0.3029943 -0.046245333 -0.5638973 -0.010095033 0.43183863 0.2844595 -0.013998371 0.30520228
0.2808513 0.31510854 -0.0037912678 -0.04316689 -0.09615451 -0.44086206 -0.27384266 0.22013733
-0.013186302 -0.019247752 -0.16854599 0.0647745 -0.20726876 0.16272393 -0.64194727 0.104304284
-0.57016176 0.3306835 1.2384973 0.25521788 0.04279781 -0.6489662 -0.29066253 0.056029256
0.32974368 -0.0029941786 -0.3836361 0.31244698 0.010045978 0.10431965 0.12125362 -0.16059163
-0.20778248 0.21543616 -0.4556677 -0.09001791 -0.054396987 0.17692994 -0.103858 -0.008529753
0.26361322 0.50822616 0.49565592 0.20281124 0.37220353 -0.30056363 0.546021 -0.7798301
-0.17492859 -0.31618562 0.011183994 -0.19939 0.05050669 -0.43007424 -0.07727179 0.008142887
-0.72691107 -0.28494057 -0.013539421 -0.18238355 -0.06893283 -0.38795298 0.07302746 -0.09408816
0.009398777 -0.042103786 0.20281005 -0.118440285 0.017354447 0.24185827 0.034486096 0.12846626
0.18694173 -0.12074994 -0.14638546 -0.2959057 -0.3983688 -1.2785454 -0.025671871 1.1762592
-0.13271931 0.7785859 -0.1718264 -0.54627544 -1.6097779 0.0019251972 0.3408521 -0.018351689
-0.022013783 0.24814755 -0.64887357 0.47529382 -0.22393206 -0.116304725 0.6189601 -0.19580828
-0.14254504 -0.19148631 -0.25582904 0.1395184 0.004341109 -0.33992085 -0.19243973 0.43879807
-0.7128339 -0.20962796 -0.16949129 -0.14377972 0.8654692 -0.73585266 -0.17992368 0.12174425
0.17893529 -0.28940427 -0.13822754 0.015253491 -0.04341352 -0.085434556 0.007001353 0.4453735
00000000: 0104 873d f923 bc3e 3bd1 37bf e96b 173f
00000010: 7199 ca3d 36d4 1a3c 5b70 66be f8a4 07be
00000020: 5d26 9b3e c2c6 863e 6610 f33c fbbc e03b
00000030: 239d adbd b10d cdbe 73e1 e6bb 749f 4a3d
00000040: dbf8 68be fa38 5ebd 1633 2a3f 33c0 b83e
00000050: 780d e23d c749 9e3e bac2 433e 6118 fbbc
00000060: baac 253e cb1d 70be f3a6 c5bd dbdd 903e
00000070: 3359 ebbd 6872 943d b796 95be 6e51 65bf
00000080: 6104 f53d 8df9 12bf b3f2 00be 520d fdbe
00000090: f149 73be 3de4 78be 3452 aabe bc24 03bf
000000a0: 092e 88be 195b ba3b 041d e03e 2dcc 593f
000000b0: c0cc 6f3c 1200 81bf 58d0 a5be 6e12 ad3d
000000c0: 107b 82be c9a7 4dbe ec5d 463d 60bc 863e
000000d0: 8df0 99be 76dc d23d fd0f f8bd ab40 ad3d
000000e0: d1ea 7bbd 70c3 c6bd e468 683c 7068 d5bd
000000f0: db29 88be 018a 113e 1760 533e 6ab7 00bf
00000100: 2a1a 913e 14f3 96bd 309d d9be 520f 4fbd
00000110: 8b21 77be 9b23 1fbe de1a 14be 6726 293c
00000120: 76cf 3bbf 6448 5e3d 3059 4c39 4fb0 133e
00000130: a96f 333c 4808 603e d0e3 693d 4272 253e
00000140: 45cb 06bd f3d8 a0bd c9bd 27be 0d05 063a
00000150: 9ee6 05bd 56ec febd f190 013d 8e9c 043f
00000160: 6010 01be b60c 82bd 094f c3be 5418 18bf
00000170: 3f22 373f 4968 02bf cee7 983e ad8c a8be
00000180: 4c77 783d ec37 37be 5a2f f63d 085e 413f
00000190: 8e7e f33c 0b12 a9bb 123f b9be c135 00bf
000001a0: 2714 863c 7229 193e f5a2 c33e 1730 03bd
000001b0: 18d8 f03c 5f71 f2be b844 693e a3f3 94be
000001c0: 186b 5d3d ba55 a4bc 2a6d 9cbe 6e60 c63d
000001d0: 320a 95be ab48 74be 04d0 4c3e 7ee6 933e
000001e0: ad37 1cbd 04c5 f2be 8c2e 71be ffc6 97be
000001f0: c668 a63c a0ee 033e 544d b4bd a715 5a3e
00000200: 1222 9b3e bf6b 3dbd 935b 10bf a365 25bc
00000210: f419 dd3e ada4 913e 6c59 65bc 7943 9c3e
00000220: becb 8f3e e855 a13e eb76 78bb c4cf 30bd
00000230: a8ec c4bd acb8 e1be 1b35 8cbe ae6b 613e
00000240: 5c0b 58bc 76ad 9dbc 5297 2cbe 7ea8 843d
00000250: 433e 54be 1aa1 263e a856 24bf 7c9d d53d
00000260: 1ff6 11bf 594f a93e 1487 9e3f ebab 823e
00000270: c24c 2f3d a622 26bf b8d1 94be ef7e 653d
00000280: 2ad4 a83e fb39 44bb f36b c4be 0df9 9f3e
00000290: e397 243c 8aa5 d53d d153 f83d 2272 24be
000002a0: eec4 54be 4c9b 5c3e 474d e9be 4f5b b8bd
000002b0: 60cf 5ebd 1f2d 353e 81b3 d4bd 61c0 0bbc
000002c0: 50f8 863e 1c1b 023f 9dc6 fd3e c0ad 4f3e
000002d0: 7691 be3e 7ae3 99be 08c8 0b3f f2a2 47bf
000002e0: 7b20 33be 15e3 a1be 123d 373c e42c 4cbe
000002f0: 1ae0 4e3d b132 dcbe ac40 9ebd be69 053c
00000300: d816 3abf bbe3 91be 73d4 5dbc c1c2 3abe
00000310: a82c 8dbd c6a1 c6be 6c8f 953d 4bb1 c0bd
00000320: 54fd 193c 0575 2cbd 70ad 4f3e d290 f2bd
00000330: ea2a 8e3c b2a9 773e 4b41 0d3d a98c 033e
00000340: a76d 3f3e bf4b f7bd 12e6 15be f480 97be
00000350: fff6 cbbe 60a7 a3bf d14d d2bc a98f 963f
00000360: 92e7 07be 6851 473f 43f3 2fbe b5d8 0bbf
00000370: 340d cebf e656 fc3a 2b84 ae3e 4856 96bc
00000380: 4056 b4bc 641a 7e3e 941c 26bf b659 f33e
00000390: 724e 65be 2c31 eebd 2b74 1e3f f781 48be
000003a0: 54f7 11be fd14 44be 06fc 82be e9dd 0e3e
000003b0: dd3f 8e3b 1b0a aebe ec0e 45be 24aa e03e
000003c0: 487c 36bf b6a8 56be 208f 2dbe fe3a 13be
000003d0: 648f 5d3f d760 3cbf ea3d 38be 0d55 f93d
000003e0: d03a 373e cc2c 94be 858b 0dbe c7e9 793c
000003f0: 60d2 31bd 50f8 aebd 9b6b e53b ff07 e43e

bias f4 [128]
-0.20914601 -0.15154214 -0.16202755 -0.39845926 -0.14306495 -0.07589916 -0.0427172 -0.2418009
-0.0871765 -0.3396479 0.03059102 0.03308121 0.095507175 -0.15997908 -0.33904347 0.05086207
-0.3339164 0.3148946 0.12280143 0.17367736 -0.12831451 0.09730289 -0.11638785 0.16512327
-0.018442662 0.11266466 -0.16288367 0.20199417 0.27205533 0.19053736 0.231034 0.01286772
-0.10352038 0.03379223 0.3765317 -0.33516052 -0.2639407 -0.1429943 0.05417314 0.027746221
-0.31585053 -0.28894597 0.1498563 0.0023903826 -0.047115244 -0.14659554 0.027488738 -0.18104656
0.21858229 0.34587038 -0.025845854 0.24474452 0.013119244 -0.060911193 0.19574375 0.26300707
0.25984168 -0.07195595 0.280313 -0.04871142 -0.37680838 -0.25235257 -0.0670112 -0.0885751
0.1959723 -0.16546637 0.23020823 0.08794628 -0.29818273 -0.060811095 -0.25795087 -0.21773222
0.27100766 -0.33841464 -0.35330546 0.08146653 -0.3278724 0.044793814 0.062189832 -0.20542486
-0.1470003 0.16737561 -0.27705184 -0.4039704 -0.088386185 0.30727524 -0.16609144 -0.15429232
-0.13693531 0.12747937 -0.12240479 -0.01903057 0.18922724 -0.101955205 -0.27507433 -0.22506173
0.29186556 -0.3003629 -0.43549895 -0.058233887 -0.12824102 0.13938896 0.21848983 -0.33714387
0.16079986 0.009872286 0.10061876 0.057955604 -0.3473083 -0.1649459 0.0615161 -0.44453642
-0.19932796 -0.24348626 0.26141995 -0.12927845 0.13918506 -0.19791831 0.2862232 -0.1820625
-0.07633424 0.23776849 0.09218515 -0.21197143 0.19373253 -0.23055202 -0.07619261 0.17473637
00000000: 5f2a 56be dd2d 1bbe 8dea 25be da02 ccbe
00000010: 9e7f 12be 0571 9bbd 3bf8 2ebd a89a 77be
00000020: 9889 b2bd 54e6 adbe 059a fa3c 2a80 073d
00000030: 4499 c33d 8ed1 23be 1b97 adbe bf54 503d
00000040: 17f7 aabe dd39 a13e 517f fb3d 7ad8 313e
00000050: e164 03be bd46 c73d c15c eebd 1316 293e
00000060: 1115 97bc bbbc e63d faca 26be 8fd7 4e3e
00000070: d64a 8b3e 3a1c 433e 2d94 6c3e 21d3 523c
00000080: 7e02 d4bd b969 0a3d c3c8 c03e 299a abbe
00000090: 3c23 87be 196d 12be a8e4 5d3d 0b4c e33c
000000a0: 29b7 a1be baf0 93be ee73 193e f7a7 1c3b
000000b0: eafb 40bd 241d 16be 1030 e13c 4564 39be
000000c0: 09d4 5f3e ec15 b13e afba d3bc 4f9e 7a3e
000000d0: 19f2 563c 047e 79bd 0d71 483e dda8 863e
000000e0: f809 853e a45d 93bd 2f85 8f3e a085 47bd
000000f0: 07ed c0be 5b34 81be 2b3d 89bd dd66 b5bd
00000100: f6ac 483e 0470 29be b5bb 6b3e 2e1d b43d
00000110: 68ab 98be 0e15 79bd 2312 84be 32f5 5ebe
00000120: 84c1 8a3e af44 adbe 74e4 b4be edd7 a63d
00000130: e4de a7be b879 373d c4ba 7e3d e55a 52be
00000140: 3f87 16be 8364 2b3e bdd9 8dbe 35d5 cebe
00000150: d103 b5bd 2e53 9d3e e013 2abe cefe 1dbe
00000160: c538 0cbe f489 023e 5daf fabd ffe5 9bbc
00000170: c9c4 413e e4cd d0bd 8bd6 8cbe 9576 66be
00000180: 676f 953e 2bc9 99be b8f9 debe a886 6ebd
00000190: 9d51 03be fbbb 0e3e ccbb 5f3e 1f9e acbe
000001a0: b8a8 243e 5ebf 213c 3511 ce3d db62 6d3d
000001b0: 65d2 b1be 94e7 28be 4ef8 7b3d 479a e3be
000001c0: a11c 4cbe 7654 79be d6d8 853e 9261 04be
000001d0: 8786 0e3e 19ab 4abe d98b 923e 986e 3abe
000001e0: 2055 9cbd 9579 733e 91cb bc3d 0a0f 59be
000001f0: d261 463e d415 6cbe df0a 9cbd 17ee 323e

weight f4 [64, 128]
-0.08633279 -0.08302195 -0.11239197 -0.116599865 -0.07427208 0.018411007 0.20356728 -0.014101167
0.15612899 0.05040672 0.093103096 0.09078329 -0.0912866 0.22702643 -0.14656748 0.34019294
0.024122033 0.17170565 0.25906825 0.18159765 -0.4116081 0.3055794 0.099444404 0.15286869
0.038868222 0.012449008 -0.06321038 0.2345603 0.056812048 -0.20529522 0.10140621 -0.17937319
0.34479794 -0.06615341 0.07127493 0.26816654 0.026612416 -0.05325861 -0.053916965 0.37111667
0.06666867 -0.021450454 0.07112729 0.0650291 -0.11600034 0.014858886 -0.37081227 -0.120858364
0.39469317 0.07308143 -0.047371782 -0.057517078 -0.18308595 0.13918285 0.08498673 0.088188045
0.054750666 0.03605377 0.29070556 0.18943147 -0.11457105 -0.044769138 0.08917078 -0.021357808
-0.041016273 -0.10857473 0.24574304 -0.34692535 -0.49156913 -0.28362897 0.05176501 0.11636088
0.19490898 0.025778975 -0.16757143 0.14354402 -0.1380591 -0.18401761 0.22954783 -0.35540468
-0.1806617 0.052517056 -0.21881437 -0.20513104 0.1498758 0.14210957 0.04033501 -0.11207545
0.0348401 -0.041689437 0.12928577 0.03550199 0.12619013 -0.054860175 0.24579531 -0.16426823
0.17244321 0.08728833 -0.059457596 0.10598166 0.030229315 0.09673249 0.19508539 -0.14688942
-0.1513476 -0.26146385 -0.04586857 0.12591717 0.12046958 0.21908307 0.06322878 0.10709107
-0.035576105 0.09695828 0.17792295 -0.09587947 0.010802849 0.109822534 -0.092622474 -0.0420185
0.053745903 -0.07723816 0.024889838 0.05353729 -0.042214822 0.07111719 -0.17828737 0.006596487
0.15130715 -0.02673697 0.32979652 -0.26845416 0.07307429 0.16098107 -0.22237109 0.12012624
-0.19224662 0.1339496 -0.047920216 0.11253516 -0.014707672 -0.21776275 -0.14512953 0.28993344
0.07956908 0.17214404 -0.035589214 0.104078166 0.35363883 -0.027402462 -0.18028289 -0.08354856
-0.11720723 -0.13779576 -0.2858124 -0.16344678 0.14027582 0.025586482 -0.14728986 -0.12566765
-0.12239516 -0.18928453 0.024573402 -0.1882054 -0.20400801 0.026667897 -0.093859516 -0.08984938
0.21125849 -0.31930718 -0.29833984 -0.18765819 0.13856664 0.104786895 0.31739908 0.37185064
0.21964376 0.5023679 0.02873861 0.23222873 0.05132323 0.0049891784 0.204845 0.06726186
-0.1899889 -0.041731976 0.021774124 -0.1366553 -0.01077857 -0.097685285 0.3572632 0.09205158
-0.22296998 -0.041031014 -0.38084856 0.116839916 -0.08382316 0.01703692 -0.03343473 0.009670057
0.062006034 -0.20201705 0.25244626 -0.22638263 -0.08517854 -0.18249764 -0.10845516 0.25488737
0.2135991 -0.124653764 0.10749229 0.05250906 -0.04292329 0.06418929 -0.0311612 -0.12401772
0.14408213 -0.2943304 0.02296946 -0.079944596 0.14952375 -0.23538893 -0.21906778 0.38028607
-0.28730386 0.037463743 -0.13116807 0.31693435 -0.28352088 0.07628285 0.12305478 0.06339024
-0.05536455 -0.06317137 0.011903033 0.1309996 -0.039559007 0.08405134 -0.32546186 0.20776336
-0.19383807 0.1532071 -0.09957662 -0.021009818 0.38012338 -0.31091776 0.18911707 -0.17261861
-0.21914202 0.23075049 0.027375393 -0.1691671 -0.039407387 -0.37741816 0.027236236 0.22812489
00000000: 3fcf b0bd 6a07 aabd c32d e6bd e9cb eebd
00000010: f61b 98bd aed2 963c f173 503e 9508 67bc
00000020: 47e0 1f3e 4777 4e3d d6ac be3d 97ec b93d
00000030: 78f4 babd 9e79 683e c915 16be c52d ae3e
00000040: 929b c53c 9bd3 2f3e 98a4 843e bcf4 393e
00000050: 4cbe d2be e774 9c3e 82a9 cb3d 9c89 1c3e
00000060: 4934 1f3d edf6 4b3c 7274 81bd 9330 703e
00000070: c0b3 683d e938 52be 0fae cf3d 9bad 37be
00000080: 5b89 b03e 707b 87bd 97f8 913d 204d 893e
00000090: 4802 da3c b325 5abd 09d8 5cbd 0103 be3e
000000a0: 9589 883d ddb8 afbc 2fab 913d fa2d 853d
000000b0: 9691 edbd af72 733c 1bdb bdbe 9784 f7bd
000000c0: 3915 ca3e b7ab 953d ea08 42bd 0797 6bbd
000000d0: e27a 3bbe f385 0e3e 860d ae3d ef9b b43d
000000e0: 3c42 603d 1ead 133d 5cd7 943e 53fa 413e
000000f0: 3aa4 eabd d85f 37bd 2b9f b63d 92f6 aebc
00000100: ae00 28bd 6e5c debd 10a4 7b3e 33a0 b1be
00000110: f3ae fbbe d137 91be 8c07 543d 9d4e ee3d
00000120: 3896 473e 6e2e d33c d897 2bbe 34fd 123e
00000130: 5d5f 0dbe 1d6f 3cbe 960e 6b3e 9af7 b5be
00000140: 61ff 38be 201c 573d e010 60be df0d 52be
00000150: 0b79 193e 2c85 113e 5336 253d d087 e5bd
00000160: 7eb4 0e3d 8bc2 2abd 7d63 043e 896a 113d
00000170: fc37 013e 10b5 60bd c4b1 7b3e ee35 28be
00000180: f494 303e 39c4 b23d cf89 73bd ea0c d93d
00000190: 78a3 f73c af1b c63d 77c4 473e 2e6a 16be
000001a0: defa 1abe 97de 85be afe0 3bbd 6ef0 003e
000001b0: c1b8 f63d 5057 603e 177e 813d 9052 db3d
000001c0: 40b8 11bd 1092 c63d 6f31 363e 755c c4bd
000001d0: 6ffe 303c a3ea e03d dab0 bdbd 971b 2cbd
000001e0: aa24 5c3d 0a2f 9ebd c6e5 cb3c eb49 5b3d
000001f0: 73e9 2cbd e4a5 913d f790 36be 5827 d83b
00000200: 43f0 1a3e 7d07 dbbc 17db a83e d372 89be
00000210: f9a7 953d 39d8 243e 3fb5 63be bf04 f63d
00000220: 4cdc 44be 152a 093e fd47 44bd d578 e63d
00000230: 73f8 70bc 33fd 5ebe d69c 14be 2872 943e
00000240: 1df5 a23d 8746 303e ffc5 11bd ef26 d53d
00000250: 2610 b53e 217b e0bc 149c 38be 821b abbd
00000260: 580a f0bd 551a 0dbe 0156 92be 985e 27be
00000270: 77a4 0f3e be9a d13c 27d3 16be 05af 00be
00000280: 50aa fabd ced3 41be 294e c93c ebb8 40be
00000290: 7ae7 50be a276 da3c 6b39 c0bd f402 b8bd
000002a0: 2554 583e 3b7c a3be 00c0 98be 7829 40be
000002b0: 6ae4 0d3e 839a d63d 2282 a23e 3563 be3e
000002c0: 4bea 603e 2f9b 003f 3c6d eb3c 5ecd 6d3e
000002d0: 4f38 523d 437c a33b e3c2 513e 96c0 893d
000002e0: 738c 42be 26ef 2abd a65f b23c 5eef 0bbe
000002f0: 9998 30bc 390f c8bd 34eb b63e 8a85 bc3d
00000300: 3e52 64be 2310 28bd 95fe c2be c449 ef3d
00000310: 7aab abbd 0391 8b3c dbf2 08bd 296f 1e3c
00000320: 0afa 7d3d 8fdd 4ebe a340 813e d9d0 67be
00000330: 1672 aebd a9e0 3abe bd1d debd 9980 823e
00000340: b9b9 5a3e 794a ffbd eb24 dc3d bd13 573d
00000350: 55d0 2fbd ad75 833d c645 ffbc 01fd fdbd
00000360: 448a 133e 79b2 96be 732a bc3c feb9 a3bd
00000370: c11c 193e cc09 71be 4e53 60be dbb4 c23e
00000380: 7e19 93be 9573 193d ec50 06be 3845 a23e
00000390: a629 91be 2f3a 9c3d 2504 fc3d bed2 813d
000003a0: f0c5 62bd fe5f 81bd f004 433c c224 063e
000003b0: a008 22bd 1c23 ac3d f0a2 a6be ebbf 543e
000003c0: 7d7d 46be 52e2 1c3e d4ee cbbd c81c acbc
000003d0: 889f c23e 9d30 9fbe e8a7 413e efc2 30be
000003e0: c466 60be db49 6c3e 5c42 e03c 243a 2dbe
000003f0: a469 21bd f43c c1be 871e df3c 9299 693e

bias f4 [64]
-0.03814974 -0.0989737 0.0070845378 -0.2076119 -0.11581245 -0.24468638 -0.039407413 -0.12880689
-0.19036788 -0.28542486 -0.29078507 -0.22801779 0.035398323 -0.27138093 -0.2907553 -0.10850137
0.040567327 -0.0016036818 -0.22841978 0.015100719 -0.16006885 -0.07389446 -0.15211268 -0.103489034
0.10636714 0.14680979 -0.03498263 -0.17516267 -0.04081694 0.14949544 -0.3224209 -0.3905334
-0.17812613 -0.24077141 -0.1877961 0.06602147 -0.0997242 -0.12389349 -0.24329737 -0.033140782
-0.09901166 -0.029357301 -0.42209595 0.030673709 -0.1277766 0.00312602 -0.19296403 -0.03829124
-0.46930093 0.06553616 -0.026116747 -0.073078446 -0.08319999 -0.10176287 -0.19898994 -0.08225621
-0.37617072 -0.28837836 -0.08114917 -0.22455661 -0.082658894 -0.13094145 -0.11997418 -0.2335661
00000000: e742 1cbd b9b2 cabd 6925 e83b 3798 54be
00000010: 142f edbd 118f 7abe ab69 21bd f4e5 03be
00000020: ccef 42be 3523 92be c8e1 94be 7f7d 69be
00000030: d5fd 103d 71f2 8abe e1dd 94be f735 debd
00000040: ed29 263d a232 d2ba e0e6 69be 0269 773c
00000050: 17e9 23be fb55 97bd 6dc3 1bbe 0ff2 d3bd
00000060: 04d7 d93d 4e55 163e f249 0fbd d85d 33be
00000070: aa2f 27bd 5515 193e 5a14 a5be fef3 c7be
00000080: b266 36be c88c 76be 9f4d 40be 4436 873d
00000090: 343c ccbd dfbb fdbd f222 79be a1be 07bd
000000a0: a0c6 cabd b97e f0bc f61c d8be 6e47 fb3c
000000b0: ded7 02be eadd 4c3b 5d98 45be 46d7 1cbd
000000c0: 3648 f0be d237 863d caf2 d5bc 27aa 95bd
000000d0: c264 aabd 0d69 d0bd 05c4 4bbe f275 a8bd
000000e0: 7399 c0be 54a6 93be 8931 a6bd 2bf2 65be
000000f0: 1149 a9bd 8415 06be 06b5 f5bd f42b 6fbe

weight f4 [32, 64]
0.1183651 0.010055977 -0.14406763 0.022660084 -0.20158921 0.20379096 0.011791449 -0.029896537
-0.06256268 -0.08308408 -0.005523476 0.15429929 0.078192405 -0.42626444 -0.073323965 0.005876007
-0.11967863 0.1846069 -0.14295164 0.11029652 -0.04969395 0.22622435 -0.036024056 -0.0824433
0.1128958 -0.20315258 -0.70589405 0.19196737 0.07233721 -0.17601965 -0.011798404 -0.0660406
-0.088017054 -0.059830613 -0.08137291 -0.22052933 0.057729863 0.108057275 -0.07257951 0.05251717
-0.09682759 -0.00716805 -0.34188315 0.13146037 -0.17047106 0.13528495 0.13965097 -0.13318901
-0.020007512 -0.029258281 0.03800917 -0.0365702 0.045359544 0.021465275 0.0831325 -0.046070945
-0.07586053 -0.2230708 -0.043721568 0.17587456 0.028478062 -0.014193125 0.08379726 -0.025526248
-0.024952548 0.2745601 -0.0469449 -0.33101442 -0.04422496 -0.1468136 -0.2737984 -0.059738096
0.012542716 -0.06354529 -0.16059053 0.12681417 -0.20497924 0.09627439 -0.11440207 0.069734395
0.18514363 -0.23579568 -0.18835661 -0.18212983 -0.13631326 -0.1148336 -0.22894712 0.034564696
0.32790232 -0.12833467 -0.0065829325 -0.07514341 0.06231463 0.031140134 -0.13263623 -0.03353169
-0.13666753 -0.07835344 0.25441018 0.5259551 -0.018041432 -0.007115257 -0.10669959 -0.11214329
0.21632114 0.04371984 -0.16078018 -0.068532184 -0.108415164 -0.17033385 0.016330076 -0.072384134
0.13053925 -0.16076647 -0.12397778 -0.039618727 -0.1482806 -0.14551997 0.06474137 0.056386292
-0.25270525 -0.15080932 0.2683097 -0.10322469 -0.19854346 -0.32542238 -0.02297592 -0.06756139
-0.11744992 -0.11519123 -0.15960488 0.10268568 0.0607763 -0.14723271 0.06982239 0.076865144
0.16880503 0.118850306 -0.08804877 -0.21129327 -0.12550879 -0.09441365 0.13934627 0.045551885
-0.15565757 -0.0005432636 -0.1101238 -0.13341326 0.11241274 0.01964556 -0.17354569 -0.20851432
0.008215768 -0.032592326 -0.07468214 0.18707696 -0.04867261 -0.019946238 -0.032947946 0.1596647
0.18776478 -0.03941499 -0.015368283 -0.5144463 0.09960834 -0.07490277 -0.10472385 0.14025992
1.32895875e-05 0.057600733 0.0894674 0.1555588 -0.18960671 -0.029311966 0.05731224 -0.33212724
0.008744528 -0.084410846 -0.18915208 0.039503295 -0.24078076 0.19782872 0.0706302 -0.13157082
0.020481572 -0.25205764 0.24262029 0.18347324 0.12185982 0.08636051 -0.07118066 0.16978326
-0.15897371 0.18489026 0.19683674 0.2313365 0.08174862 -0.123265475 0.051509924 -0.275971
-0.0152982 0.095660344 0.15074003 0.10861251 -0.027983733 0.10930818 0.20768301 -0.17191565
-0.17825703 -0.27215624 -0.13571273 0.12741712 0.29432338 0.202379 0.38808072 -0.24569291
-0.24826784 -0.0040217633 0.049944405 0.14706181 0.4638988 -0.119053565 0.18342835 0.23423518
0.24171695 -0.3720668 -0.30048624 -0.115348935 0.098495714 -0.29555553 -0.13835269 -0.024332864
0.010925157 0.041149903 0.046618704 0.08471234 0.40700898 -0.025307285 0.19204976 0.12395195
0.053139236 0.065422624 0.15958022 -0.23725048 -0.20445341 0.064121455 0.07176929 -0.14420564
-0.18612742 0.17575818 -0.00023044617 -0.11854822 0.2247426 0.034921024 0.06354792 0.47969285
00000000: 6769 f23d d3c1 243c 7786 13be a4a1 b93c
00000010: 676d 4ebe 94ae 503e ec30 413c 95e9 f4bc
00000020: dd20 80bd fc27 aabd 46fe b4bb a200 1e3e
00000030: 5723 a03d 553f dabe e02a 96bd 858b c03b
00000040: 121a f5bd 9709 3d3e ea61 12be 24e3 e13d
00000050: e28b 4bbd 5ba7 673e f68d 13bd 08d8 a8bd
00000060: ea35 e73d 3b07 50be 79b5 34bf 1893 443e
00000070: 8825 943d 7f3e 34be 184e 41bc 4b40 87bd
00000080: 4942 b4bd f210 75bd d7a6 a6bd 71d2 61be
00000090: 2676 6c3d 224d dd3d 91a4 94bd 3e1c 573d
000000a0: 8b4d c6bd f6e1 eabb 4f0b afbe 8c9d 063e
000000b0: f78f 2ebe 2388 0a3e aa00 0f3e b362 08be
000000c0: cbe6 a3bc 10af efbc 81af 1b3d a2ca 15bd
000000d0: eeca 393d f2d7 af3c 5f41 aa3d e3b4 3cbd
000000e0: c45c 9bbd ac6c 64be 6315 33bd 7618 343e
000000f0: d34a e93c 488a 68bc e69d ab3d 6c1c d1bc
00000100: 4969 ccbc 2493 8c3e 4c49 40bd b97a a9be
00000110: 3b25 35bd 4e56 16be 4e2f 8cbe efaf 74bd
00000120: f77f 4d3c 0824 82bd d871 24be 93db 013e
00000130: 14e6 51be 822b c53d a24b eabd e8d0 8e3d
00000140: 4b96 3d3e 6c74 71be 8ee0 40be 3e80 3abe
00000150: b495 0bbe e12d ebbd 1d71 6abe b693 0d3d
00000160: d0e2 a73e 2a6a 03be a4b5 d7bb cae4 99bd
00000170: a03d 7f3d 9819 ff3c cbd1 07be 8658 09bd
00000180: 93f2 0bbe c577 a0bd 0d42 823e fea4 063f
00000190: a0cb 93bc 1a27 e9bb 5185 dabd 62ab e5bd
000001a0: 4a83 5d3e 9313 333d 8fa3 24be 9a5a 8cbd
000001b0: c508 debd ff6b 2ebe a7c6 853c 223e 94bd
000001c0: 15ac 053e f79f 24be 10e8 fdbd 3f47 22bd
000001d0: dfd6 17be 3003 15be 2097 843d 50f5 663d
000001e0: 9562 81be c26d 1abe e45f 893e 7767 d3bd
000001f0: fa4e 4bbe c39d a6be ff37 bcbc a05d 8abd
00000200: 9589 f0bd 61e9 ebbd 766f 23be df4c d23d
00000210: 92f0 783d 2cc4 16be 0bff 8e3d 796b 9d3d
00000220: 3adb 2c3e ca67 f33d ea52 b4bd 435d 58be
00000230: 6085 00be f25b c1bd cab0 0e3e 9d94 3a3d
00000240: b364 1fbe ce69 0eba 9688 e1bd 7c9d 08be
00000250: a738 e63d baef a03c f6b5 31be c784 55be
00000260: 6e9b 063c 887f 05bd f3f2 98bd 1a91 3f3e
00000270: ee5c 47bd 4b66 a3bc 6df4 06bd 257f 233e
00000280: 6945 403e 9d71 21bd 40cb 7bbc c1b2 03bf
00000290: 75ff cb3d a066 99bd 7579 d6bd 4ca0 0f3e
000002a0: 58f6 5e37 bfee 6b3d af3a b73d ce4a 1f3e
000002b0: 4328 42be a61f f0bc 3dc0 6a3d 950c aabe
000002c0: 3545 0f3c 98df acbd 15b1 41be 35ce 213d
000002d0: 3b8f 76be 9d93 4a3e 91a6 903d 80ba 06be
000002e0: f8c8 a73c b30d 81be 7471 783e 69e0 3b3e
000002f0: a491 f93d c7dd b03d 2ac7 91bd aadb 2d3e
00000300: 01ca 22be df53 3d3e 928f 493e 7ae3 6c3e
00000310: d26b a73d 9c72 fcbd 12fc 523d 124c 8dbe
00000320: 4da5 7abc 92e9 c33d 985b 1a3e 3c70 de3d
00000330: 243e e5bc f8dc df3d dbaa 543e a80a 30be
00000340: 0389 36be 1058 8bbe 47f8 0abe a279 023e
00000350: 8eb1 963e 713c 4f3e 84b2 c63e ec96 7bbe
00000360: ed39 7ebe ffc8 83bb 8192 4c3d 5f97 163e
00000370: 2584 ed3e 5bd2 f3bd a4d4 3b3e 59db 6f3e
00000380: a684 773e 8a7f bebe 55d9 99be 103c ecbd
00000390: 1fb8 c93d 0e53 97be 54ac 0dbe b755 c7bc
000003a0: 6eff 323c cd8c 283d 41f3 3e3d aa7d ad3d
000003b0: 7b63 d03e 3951 cfbc b1a8 443e 85da fd3d
000003c0: 87a8 593d 4cfc 853d ff68 233e caf1 72be
000003d0: 3c5c 51be 1c52 833d c7fb 923d a5aa 13be
000003e0: 3098 3ebe f4f9 333e eca3 71b9 69c9 f2bd
000003f0: ed22 663e 5909 0f3d 6925 823d 4d9a f53e

bias f4 [32]
-0.1759036 0.22372055 -0.20227087 -0.18857533 -0.04740018 -0.12930539 -0.07588718 -0.043520793
-0.22695285 -0.12489274 -0.14370865 0.022786153 -0.013804179 -0.092046484 0.009083267 -0.16531254
0.039639667 -0.04264309 0.01997815 -0.02821815 -0.2604472 -0.1395981 0.07852079 0.193535
0.029946297 -0.18296151 -0.14746834 -0.09544527 0.13819179 -0.24893257 -0.10543685 -0.0943583
00000000: 1320 34be 0017 653e 1820 4fbe e419 41be
00000010: b126 42bd a268 04be bd6a 9bbd dc42 32bd
00000020: 5466 68be c4c7 ffbd 5c28 13be 07aa ba3c
00000030: ec2a 62bc de82 bcbd fcd1 143c b147 29be
00000040: 345d 223d 85aa 2ebd 38a9 a33c c029 e7bc
00000050: 5659 85be cef2 0ebe 82cf a03d 0a2e 463e
00000060: f051 f53c 435a 3bbe f101 17be cf78 c3bd
00000070: 2682 0d3e 2ee8 7ebe 46ef d7bd ed3e c1bd

weight f4 [6, 32]
-0.17423314 -0.03526943 -0.1216547 -0.0041353344 0.025379864 -0.032735758 -0.16624041 0.048260625
-0.012833774 0.095211625 0.028180292 -0.09086441 -0.011903991 0.06673779 0.005917858 0.039671045
-0.12483999 -0.022260884 -0.12305443 0.19319886 0.12714776 -0.033456985 0.10813545 -0.09446023
-0.026748857 0.11270454 0.08521625 0.08154156 -0.036825493 -0.014293448 0.13941462 -0.13144107
-0.05369011 0.14593475 -0.13417508 -0.03818104 0.090451874 0.0011742656 -0.18185803 0.10594032
0.07601135 -0.11597027 -0.15717185 0.053702526 0.109819435 -0.12263889 0.03701021 0.16814698
-0.20579861 0.16439499 0.28279486 0.122792155 -0.049787447 -0.081440896 0.03886574 0.17847493
-0.032109566 -0.08668273 0.17900002 -0.06335867 0.109421924 -0.11772311 0.088313125 -0.030422337
0.14099286 0.0071133454 -0.1280043 0.0337673 -0.22291659 -0.17344062 -0.063228555 0.24456082
0.020446656 0.17542994 0.14148279 -0.16880284 0.3173881 -0.15036741 -0.11397159 -0.050130114
0.028074753 -0.07647307 0.017550206 -0.14029187 -0.025164861 0.1467197 0.17803088 0.13154088
0.112186596 0.18936348 0.08466434 -0.27861553 -0.13614713 0.09370203 -0.058847435 -0.091967456
0.0845257 0.10194895 0.018990492 0.010607909 0.0859723 -0.011549283 -0.07181028 -0.028276676
0.11946279 -0.018563965 0.12204521 0.029625611 0.056645796 -0.13569182 -0.019124838 -0.08926075
0.08290724 -0.15983184 0.03721186 0.001533333 0.14153253 -0.0073427428 -0.0897395 -0.13113087
-0.030368177 0.05975926 0.10358212 0.09650542 -0.074037574 -0.12475335 0.072125435 -0.107981555
-0.013532352 0.33746082 -0.16768827 0.021284547 0.07271911 -0.17045991 0.11234979 0.06745163
-0.09775739 -0.059730664 -0.004008087 -0.028341744 0.07234121 -0.07796283 0.06765453 -0.15917473
0.14810747 0.14050104 0.008923477 0.040416203 -0.08005782 -0.18379848 -0.0324142 0.11090159
0.029813599 -0.14518952 0.10504647 -0.01749375 0.14392686 -0.10182766 0.024786275 -0.025467645
-0.048564866 0.07202991 0.053049315 0.47509152 -0.17948683 -0.14085054 -0.18315569 0.18334393
-0.026880523 -0.24115792 0.2235316 -0.085409954 0.1583961 -0.025949223 -0.074441165 -0.023659581
0.043483514 -0.023509087 -0.12401384 -0.18433858 -0.11925055 0.061409865 0.18472818 0.07076765
-0.3745493 0.22685423 0.12572284 -0.14691463 0.20791039 0.06548538 -0.12776119 -0.015278169
00000000: 2c6a 32be ae76 10bd 1926 f9bd b381 87bb
00000010: 6fe9 cf3c ee15 06bd ed3a 2abe efac 453d
00000020: c044 52bc 50fe c23d 5bda e63c 1f17 babd
00000030: f508 43bc d3ad 883d 97ea c13b 1b7e 223d
00000040: 1cac ffbd 755c b6bc f603 fcbd ecd5 453e
00000050: 0633 023e 310a 09bd 1e76 dd3d 5d74 c1bd
00000060: 6b20 dbbc a3d1 e63d db85 ae3d 43ff a63d
00000070: 54d6 16bd 112f 6abc b5c2 0e3e 7d98 06be
00000080: 29ea 5bbd eb6f 153e 3165 09be b963 1cbd
00000090: d53e b93d d1e9 993a fe38 3abe 3df7 d83d
000000a0: d7ab 9b3d d281 edbd a8f1 20be 2ef7 5b3d
000000b0: 03e9 e03d 192a fbbd 0598 173d b92e 2c3e
000000c0: dfbc 52be 2957 283e 7dca 903e 747a fb3d
000000d0: eced 4bbd 7cca a6bd af31 1f3d 22c2 363e
000000e0: 5285 03bd b786 b1bd c84b 373e 31c2 81bd
000000f0: 9a18 e03d d018 f1bd 83dd b43d 4438 f9bc
00000100: 6f60 103e 1117 e93b 8f13 03be 954f 0a3d
00000110: 3f44 64be 6b9a 31be f97d 81bd 276e 7a3e
00000120: bf7f a73c e8a3 333e dde0 103e a7da 2cbe
00000130: b180 a23e eaf9 19be f069 e9bd 3c55 4dbd
00000140: 06fd e53c ea9d 9cbd 73c5 8f3c aca8 0fbe
00000150: 8a26 cebc b03d 163e ba4d 363e a7b2 063e
00000160: 16c2 e53d 80e8 413e 7f64 ad3d b2a6 8ebe
00000170: 276a 0bbe dae6 bf3d 020a 71bd 6f59 bcbd
00000180: cf1b ad3d 9cca d03d f391 9b3c cccc 2d3c
00000190: 3f12 b03d 3439 3dbc 4511 93bd 7da4 e7bc
000001a0: e8a8 f43d 7513 98bc d7f2 f93d 69b1 f23c
000001b0: 6c05 683d ccf2 0abe b1ab 9cbc 57ce b6bd
000001c0: 45cb a93d f5aa 23be 776b 183d 1efa c83a
000001d0: e7ed 103e 649b f0bb 58c9 b7bd 2c47 06be
000001e0: afc6 f8bc 20c6 743d dd22 d43d a2a4 c53d
000001f0: 03a1 97bd af7e ffbd 80b6 933d 6f25 ddbd
00000200: ccb6 5dbc aac7 ac3e 79b6 2bbe ee5c ae3c
00000210: c2ed 943d 0b8d 2ebe a617 e63d 1524 8a3d
00000220: 0735 c8bd 24a8 74bd 4556 83bb f22c e8bc
00000230: a127 943d faaa 9fbd 758e 8a3d b3fe 22be
00000240: 7ca9 173e 81df 0f3e c633 123c 768b 253d
00000250: 5bf5 a3bd ab35 3cbe c1c4 04bd 5f20 e33d
00000260: a63b f43c 90ac 14be 9b22 d73d 0e4f 8fbc
00000270: 9061 133e 058b d0bd 960c cb3c 86a1 d0bc
00000280: f4eb 46bd 6b84 933d 3d4a 593d 323f f33e
00000290: 65cb 37be 203b 10be 2a8d 3bbe 83be 3b3e
000002a0: 8b34 dcbc 1af2 76be 78e5 643e 6aeb aebd
000002b0: 9632 223e 7793 d4bc 9c74 98bd bdd1 c1bc
000002c0: c51b 323d 2196 c0bc f8fa fdbd 41c3 3cbe
000002d0: a239 f4bd e988 7b3d 6229 3d3e a1ee 903d
000002e0: edc4 bfbe 7a4c 683e 7dbd 003e ca70 16be
000002f0: 76e6 543e 331d 863d d4d3 02be 4951 7abc

bias f4 [6]
-0.040965382 0.06230912 0.05416627 -0.067923926 -0.029454675 0.12613449
00000000: 51cb 27bd d937 7f3d 73dd 5d3d b31b 8bbd
00000010: ee4a f1bc 6629 013e
