diablo/models/policy_27.pt (torch, 67720 bytes, 8 tensors)

weight f4 [128, 27]
000000 68 79 b3 be 0e 14 68 bf 9f 38 22 bf 27 db 53 3f
       -0.35053563 -0.906556 -0.63367647 0.82756275
000010 6a b0 d1 3e 57 42 45 3e d8 0d c7 bd 47 2d b2 3d
       0.40954906 0.19263588 -0.09719437 0.08700042
000020 cd 6f 11 bd ff 84 a6 be 44 9b 02 3e 9f 9f ed bc
       -0.035507012 -0.32523343 0.12754542 -0.029006777
000030 47 2c d5 3e 31 ed a0 be a1 af 02 bc 50 c0 86 be
       0.41635343 -0.31430963 -0.0079764435 -0.26318598
000040 72 a1 06 3f a1 53 29 be a4 dd 6b 3e 4b fb 39 bc
       0.52590096 -0.16535808 0.23033768 -0.011351417
000050 61 7c 03 3e c0 8a 65 bd eb 47 b9 3d 18 6a c5 3d
       0.12840416 -0.056040525 0.090469204 0.096393764
000060 82 32 85 bd ab 5d 08 3e be 5e 41 3e f1 48 b0 3e
       -0.06503774 0.13316981 0.18883798 0.3443065
000070 06 91 06 3f e6 69 83 bf 96 78 f8 3e 42 e3 43 3e
       0.5256504 -1.0266693 0.485295 0.1912966
000080 0c 22 28 3e aa 81 0c bd 28 19 50 3f 1c 72 d4 3e
       0.16419238 -0.034303345 0.81288385 0.4149331
000090 e2 de 05 bf 6b 4b 27 be 0f 5d d2 bb ed a4 1a be
       -0.5229322 -0.16337363 -0.006419785 -0.15101977
0000a0 cc 17 7a 3e 0b cc f3 3c fb f3 ab be 98 40 f7 bd
       0.2442314 0.029760381 -0.3358458 -0.12072867
0000b0 11 20 a9 bc 9e 6e c2 3d 8f cc 15 bc 13 4a 51 bc
       -0.020645173 0.09493755 -0.009143009 -0.012774008
0000c0 a5 58 c5 bc 3b 58 72 3c 06 21 d5 3c 07 38 e6 bd
       -0.02409012 0.014791544 0.026016723 -0.11241155
0000d0 03 ce 9b bd 9b 0e fd 3d 21 da e5 3e ec 88 84 3d
       -0.07607653 0.123563014 0.44892982 0.06471428
0000e0 08 96 33 3e aa e9 36 3e a6 76 9c 3e 71 8a 79 bd
       0.17537701 0.17862573 0.30559272 -0.060923044
0000f0 9a 6d f7 bc ce 22 15 be 44 39 c3 be 7f 6f 92 3d
       -0.03020363 -0.14564058 -0.38129628 0.071501724
000100 02 81 3a be 67 0e d2 3c c6 ad d9 be 0e 22 a0 bd
       -0.18213275 0.025641633 -0.4251539 -0.078189954
000110 90 ce 1e 3c a4 eb 6c be 3e 28 91 be b4 17 a5 bd
       0.009692803 -0.23136765 -0.28351015 -0.08061162
000120 a9 7a 28 bf 36 ae d0 be de 5d 68 be 6a 45 ff 3d
       -0.65812165 -0.40757912 -0.22692057 0.124644116
000130 03 1e 4e 3d 91 9d 3f bc 77 4f 91 bc 0c 63 48 3c
       0.05032159 -0.011695282 -0.017738087 0.012230646
000140 a7 5c 3a 3e ca 73 7f 3f eb 49 9c bc b1 58 83 be
       0.18199407 0.99786055 -0.019078216 -0.25653604
000150 64 26 77 3f e8 19 dd be 17 ec 63 3f 66 8b e7 bd
       0.96542954 -0.43183827 0.8903212 -0.11305885
000160 1a ea eb be 26 3c 6f be 3e 4c 3b bf 8c 14 b0 bd
       -0.46077043 -0.23362789 -0.7316321 -0.08597669
000170 76 b5 1c bd 39 b0 f1 3d 85 80 09 bf 96 86 94 bd
       -0.038258992 0.1180119 -0.5371173 -0.07252233
000180 66 70 14 be 00 19 f6 be ef cc 67 bd bd 78 7b bf
       -0.14496002 -0.48065948 -0.056591924 -0.98231107
000190 cd 0c 83 be fb 31 ac bd 42 29 24 3d 13 a5 08 be
       -0.25595704 -0.084079705 0.04007841 -0.13344221
0001a0 d1 4a 5d 3c 7c 9a 50 3d 82 24 0e 3d e7 9f cc 3d
       0.013506607 0.050928578 0.034702785 0.099914365
0001b0 01 8e 1e 3f ae 9f e0 ba c4 c7 de bd 3d d2 18 3f
       0.6193543 -0.0017137432 -0.10877946 0.596958
0001c0 f9 3c ee 3a 84 e2 68 3e 40 c6 1b bd ca 32 25 bf
       0.001817613 0.22742659 -0.038030863 -0.6453062
0001d0 a1 ec 8f 3e 32 14 17 bf f3 f7 00 3e 29 8d f1 3a
       0.2811022 -0.5901519 0.12594585 0.001842891
0001e0 80 e7 99 3e 02 70 91 bd 69 b6 2a 3c b0 78 8b bf
       0.30059433 -0.07101442 0.0104194665 -1.0896206
0001f0 84 20 54 be ee 8c 0a bd 4e 8b 96 be 8d 5f 91 3e
       -0.20715529 -0.033825807 -0.29403156 0.28393212
000200 eb 8f 4e bd ce a7 e0 3d 75 38 0a be b0 f2 4e be
       -0.05043022 0.10969506 -0.13498099 -0.20209765
000210 45 c7 f0 bc 50 47 ba 3d f8 85 0c be fc 15 df be
       -0.029391894 0.09095633 -0.1372298 -0.4357146
000220 d1 0c 32 3e 4f ae 9a bd 05 9d a0 bf b0 19 58 3f
       0.17387702 -0.07552778 -1.2547919 0.84414196
000230 ab 35 c2 be 86 29 c1 bd 14 e9 d4 bd 03 7e b3 be
       -0.3793157 -0.09431748 -0.103960186 -0.35057077
000240 87 60 50 3e c4 66 0d bf c6 c7 e4 38 17 66 92 3d
       0.20349322 -0.5523493 0.00010909098 0.07148378
000250 8c d1 b3 be 7d b0 80 3c 26 50 29 3d 88 3d 73 3d
       -0.3512081 0.015709156 0.0413362 0.059384853
000260 e3 09 f1 3d aa b9 5b bf d6 61 90 3f 15 b6 15 be
       0.11769464 -0.85830176 1.1279857 -0.1462024
000270 0d 43 46 be b6 39 f5 3c dc bb 5c 3c bc 86 c7 3b
       -0.19361515 0.029934745 0.013472524 0.0060890596
000280 fa e3 e9 bd 65 09 12 3e 7d b1 67 3d df 98 7e 3f
       -0.11420436 0.14261396 0.05656575 0.9945201
000290 fd a3 4d 3f 64 d6 63 bf af 7a 69 bd e4 5b 64 be
       0.8032835 -0.8899901 -0.057001766 -0.22300678
0002a0 c0 b3 e4 3d 18 3f c7 bd f7 7f 19 3e 27 d4 3a 3d
       0.11167097 -0.09728831 0.14990221 0.04561248
0002b0 5f 4d a2 3e 4c b9 36 3c ab 18 af 3e 81 da 80 3e
       0.31699654 0.011152577 0.34198508 0.25166705
0002c0 7a ea 65 bb b9 c1 16 ba 5d a5 97 bd b8 09 2f bf
       -0.0035082386 -0.0005750913 -0.074045874 -0.68374205
0002d0 51 fe 3c 3f ac 8c be 3d f6 01 46 3e 32 b0 f0 3d
       0.73825556 0.09304175 0.19336686 0.117523566
0002e0 07 c9 6c bd 40 c5 50 bd c1 8d 55 3e 11 cf 9e bb
       -0.057808902 -0.050969362 0.20854856 -0.0048464616
0002f0 f2 83 0e be 2e e6 08 3f 54 51 11 3f 3d ca f0 3d
       -0.1391752 0.53476226 0.5676472 0.11757324
000300 d4 cf fd bd 2a e0 96 bf f2 07 85 3e fe d9 89 be
       -0.12393156 -1.178716 0.25982624 -0.26924127
000310 4d 94 56 3e 5c d3 e5 bd 15 3e a5 3e 34 53 1d 3f
       0.2095501 -0.11221954 0.32273927 0.6145508
000320 11 3e 19 bb 72 47 c5 bd cd 4b cd 3d 9e 72 ce bb
       -0.0023382942 -0.09632768 0.100242235 -0.0063002845
000330 47 6e 18 bf 5d 41 65 3e 00 17 1f 3e f1 36 e5 be
       -0.5954327 0.22388215 0.15536118 -0.4476848
000340 d9 8a cb be 50 f9 13 3f f3 25 87 be 71 85 eb 3d
       -0.3975437 0.57802296 -0.2639614 0.11500061
000350 34 02 18 be c5 08 4f 3d 8e 98 ee 3c 44 e8 c2 bc
       -0.1484459 0.050545473 0.029125478 -0.023792394
000360 fc d6 51 3f b2 4f 4f be f1 24 e4 bd d5 3c 3f bd
       0.81968665 -0.20245245 -0.111398585 -0.046688873
000370 64 25 ba be 33 60 73 be b7 ac 1e 3e 1f d5 b8 be
       -0.36356652 -0.23767166 0.15495573 -0.36100098
000380 87 96 88 be 08 81 10 3d cc 9b 2a be 80 9a ef 3b
       -0.26677343 0.035279304 -0.16660994 0.007312119
000390 85 91 a4 3e 2c b2 f5 be 8d e2 0d 3c 88 1e 80 bf
       0.32142273 -0.47987497 0.008659971 -1.0009317
0003a0 bd 90 f9 3b 90 c0 2f bf 85 11 d6 be 08 76 20 3f
       0.007616131 -0.686532 -0.4181024 0.626801
0003b0 c0 9e 7e bd b0 01 33 3b 80 7c 56 be 30 d5 4c be
       -0.062163115 0.0027314238 -0.2094593 -0.200032
0003c0 8e a7 bd be 81 6e 17 bd 46 b8 8f 3d 8e 40 1f bf
       -0.37041897 -0.03697062 0.07017569 -0.6220788
0003d0 85 c0 01 be bd 3a ec bd 63 29 e5 3d de 60 e5 3e
       -0.12671097 -0.11534641 0.111895345 0.44800466
0003e0 6f 61 80 3e 24 7c 5e bd 3a 1b ff 3e a7 e1 52 be
       0.25074336 -0.05431761 0.4982546 -0.20593892
0003f0 23 5a ef be b3 a1 2c 3f 30 62 0b 3d c4 d9 0f be
       -0.46748456 0.67434233 0.034029186 -0.14047915

bias f4 [128]
000000 b6 50 bf b9 c7 9b 92 be d7 19 13 3f e2 a8 50 be
       -0.00036490493 -0.28634474 0.57461303 -0.20376924
000010 90 e8 8b be 81 29 e2 3e 68 ee 14 be 1a 5d 0d 3e
       -0.2732587 0.4417229 -0.1454407 0.13805047
000020 36 e7 b0 3d de 8a a3 bc ff 51 05 be a1 71 aa be
       0.0863785 -0.019963678 -0.1301956 -0.33289817
000030 69 99 81 3d 1e b2 c2 be e9 94 a1 be 9f 89 08 be
       0.06328089 -0.38026518 -0.31558922 -0.13333748
000040 b4 0f c3 3d 87 2a 9c 3d bd 35 f9 3d a2 82 02 bd
       0.095244795 0.07625299 0.12168453 -0.031862862
000050 7b 0c 90 3d ca ff 92 be 14 20 b8 be 02 b7 0d be
       0.070336305 -0.28710777 -0.35961974 -0.13839343
000060 e0 ac 77 3e e3 22 84 3e 05 5a 27 3e 85 65 e2 3e
       0.2418704 0.25807866 0.16342933 0.44218078
000070 38 f9 c2 be e2 01 2f be 95 bd 5e 3e 04 2a 00 3d
       -0.38080764 -0.17090562 0.21752007 0.03129007
000080 d6 a4 f0 be 24 32 0b 3e 0c b3 aa be 23 4e 6a 3e
       -0.4700076 0.13593346 -0.33339727 0.2288137
000090 11 f7 b1 be 63 72 01 be 5d 37 5c be 7a fd a0 3d
       -0.3475881 -0.12641291 -0.21505494 0.07860847
0000a0 36 8e ee bd a7 a0 56 3e 78 e1 78 3d c2 22 87 bb
       -0.11648218 0.20959722 0.0607619 -0.0041240165
0000b0 ec 01 29 bf c3 fa d4 bd 47 65 19 bf ef c8 7e 3e
       -0.6601856 -0.103993915 -0.5992016 0.24881338
0000c0 7f 46 6d 3e e5 66 1c bf ff 5f 59 be f2 e4 5e 3d
       0.23171423 -0.61094505 -0.21228026 0.054417558
0000d0 1f db 37 3e c9 e8 c9 3e 2e 85 67 be 37 d4 93 be
       0.17954682 0.39435413 -0.22609398 -0.28872845
0000e0 72 a0 6f be ed 00 44 be 66 c4 da be 7c f9 a9 bd
       -0.23401049 -0.19140978 -0.42727965 -0.082995385
0000f0 f1 b6 31 be 7e e6 34 be 77 70 ea be df ea 3e be
       -0.17354943 -0.17666051 -0.4578893 -0.18644284
000100 89 8d 13 3e 34 ad 31 3e 44 c2 72 3e b0 5f eb be
       0.1440946 0.17351228 0.23706919 -0.4597144
000110 e5 b3 0f bf ae fa 63 be 57 54 c5 bb 3a a3 89 3d
       -0.5613387 -0.22263595 -0.006022017 0.06720586
000120 11 b6 fb be 05 3c 93 be 8f 91 88 be 69 8f 90 be
       -0.49162343 -0.2875673 -0.26673552 -0.28234413
000130 e4 f1 b6 bd 4d 73 b5 bd bd 54 5c bf 05 4c 6b be
       -0.08932856 -0.088598825 -0.860668 -0.22978218
000140 47 22 64 be e3 c4 12 be 59 00 54 be e9 2a b6 3d
       -0.22278701 -0.14332919 -0.20703258 0.08894903
000150 7a 2c 65 be ef 20 f1 be 54 ec aa 3e f4 42 84 bc
       -0.22380248 -0.4709544 0.3338343 -0.016145207
000160 6e 79 98 3d b4 60 da 3d 62 f4 e1 bd e8 84 62 be
       0.07445036 0.10662976 -0.110329404 -0.22121012
000170 d2 6c a5 be 88 04 18 3d c0 ca 2e be 1f 87 03 3e
       -0.32309586 0.037113696 -0.1706953 0.12844513
000180 ae 73 97 be c2 eb c1 bd db ab a7 3d 0a 85 cc 3c
       -0.29580444 -0.09468795 0.08187076 0.024965782
000190 8d 46 b2 be ed 88 82 3e 1d ad e4 be e1 e9 0a bf
       -0.3481945 0.2549509 -0.44663325 -0.5426312
0001a0 ce b6 a8 3d 64 03 93 be c8 66 6f be 2e f2 5b be
       0.08237992 -0.28713524 -0.23379052 -0.21479103
0001b0 3b 63 2c 3e ef 30 ef be 70 ef f6 3d bb c5 0f bf
       0.16834728 -0.4671702 0.12057388 -0.5616109
0001c0 94 96 87 be c8 80 40 3e 43 0c 92 be 82 5b 01 bf
       -0.2648207 0.18799126 -0.2852498 -0.50530255
0001d0 28 68 3c be 21 96 2c be 69 55 c9 be 71 e1 8e be
       -0.18399107 -0.16854145 -0.39322975 -0.27906373
0001e0 35 c8 a4 be ed ae 67 be 49 56 f2 be 60 f0 b6 3b
       -0.32183996 -0.22625323 -0.47331455 0.005582854
0001f0 45 a8 4b 3d 6d 60 b6 3d 77 52 fe bd d3 ec cd bc
       0.04972102 0.089051105 -0.12418073 -0.02513734

weight f4 [64, 128]
000000 26 99 90 bc d9 a7 a0 3e 6d 21 85 be bc 23 12 bd
       -0.017651152 0.31378058 -0.26002064 -0.03567861
000010 6a 47 15 3d 91 5c 6d bd f4 81 f9 bd 26 47 7e bd
       0.03644506 -0.057949606 -0.1218299 -0.06207957
000020 70 05 fe bd b5 81 6b 3d 71 21 2c 3e c6 19 fd 3d
       -0.12403381 0.057496745 0.16809632 0.123584315
000030 7b 7e b9 3d 9d 43 5b 3e 63 de 83 3e ff e3 17 be
       0.09057327 0.21412511 0.25755605 -0.14833067
000040 c6 c7 96 3e ca cb 99 3e d1 84 0f bd c6 a7 0f 3e
       0.2944929 0.3003829 -0.035038773 0.14028844
000050 b0 57 d3 bd e4 c3 37 3e 38 c9 ad bd d4 f0 1d 3e
       -0.103194594 0.1794582 -0.08485645 0.154239
000060 f1 c6 4d be 9a fb c4 3d 33 ca 13 3e 96 21 9b be
       -0.20095421 0.09618302 0.14432602 -0.30299062
000070 53 0b 09 be bc 78 e2 bd 69 2d 98 3d 37 74 a6 be
       -0.13383226 -0.110581845 0.07430536 -0.3251054
000080 1f 2f 92 3d 82 56 ac be 48 e2 ed 3c 1c e5 74 be
       0.07137894 -0.3365975 0.029038563 -0.23915523
000090 9d db a1 3e 5d c1 c1 3d 17 bc 76 3e f5 fb 5c be
       0.31612864 0.09460709 0.24095188 -0.21580489
0000a0 5d b2 55 be 4c 93 7e be c0 00 a3 3d d5 51 85 be
       -0.20868821 -0.24860877 0.079591274 -0.26038995
0000b0 dd 2c c6 bd 9f 0c 77 bd 99 52 1e be 8b 0f 21 be
       -0.09676526 -0.06031477 -0.15461196 -0.15728585
0000c0 32 1e 5d bd 32 47 03 3e 45 5e b7 3c ba 01 11 3e
       -0.053983875 0.12820128 0.022383818 0.14160815
0000d0 da c1 c2 be f7 04 4e be 07 0e bd 3d c6 74 23 3e
       -0.38038522 -0.20119081 0.09231191 0.15962514
0000e0 22 8a 56 3e 70 e6 ca 3e 1b 23 b3 3d 0f b4 3c 3d
       0.20951131 0.39628935 0.0874693 0.046070155
0000f0 d0 23 6b 3e 47 d3 5e be eb 14 93 3e c2 7e 10 3e
       0.2296288 -0.21760283 0.28726897 0.14110854
000100 f2 24 21 bd f7 c6 88 be a4 85 78 bc 8f 26 ab 3c
       -0.039341874 -0.26714298 -0.015168581 0.02089241
000110 76 d0 10 be c7 a4 dd bd f6 3e 4a 3e 01 15 89 be
       -0.14142022 -0.108224444 0.1975058 -0.26773837
000120 02 4a 15 be ad c3 69 3d ef 8e 84 bd 81 4b fb bd
       -0.14579013 0.057071377 -0.06472575 -0.122702606
000130 52 ee 7b bb 9a 7b ef 3c 77 d5 25 bc 50 b3 31 be
       -0.003844161 0.029233743 -0.010121695 -0.17353559
000140 9b 80 06 3d d3 84 b7 3d e5 af 29 be 19 bc dc bd
       0.03283749 0.08960881 -0.16571005 -0.10778064
000150 fa 58 29 be 1c e0 5a 3d 5a 5d c1 be 0c 7b b4 bd
       -0.16537848 0.053436384 -0.37766534 -0.08812532
000160 ed 85 9c bd 3f df 8d be f2 d1 8a be 96 8f 75 bc
       -0.07642732 -0.27709386 -0.271133 -0.014987847
000170 5d 94 65 3e ab 2b 10 be 60 56 d1 3d cf 6e 47 be
       0.22419877 -0.14079158 0.10221553 -0.19475864
000180 35 f8 9b 3d d3 75 8e bc 56 72 06 bc 52 9a c5 bd
       0.07615701 -0.017390167 -0.008205971 -0.09648575
000190 89 35 9d 3e 92 e9 9e 3d cf 0a 0e 3e fc 8a 1e bb
       0.30704907 0.07759394 0.1387131 -0.0024191728
0001a0 7e 26 88 be fa 90 79 3e ea f6 99 3d cd 77 4d bd
       -0.26591867 0.2437171 0.07517798 -0.05016308
0001b0 f7 41 fb bc 8e 90 96 3e 98 51 94 3e 3e 4a 17 3d
       -0.030671103 0.2940716 0.289685 0.036936037
0001c0 df 0a 90 be 0e 9a 46 be 70 60 be bc 55 fa 02 be
       -0.28133294 -0.19394705 -0.023239344 -0.12790807
0001d0 fe 64 40 be 09 ce 84 bc 45 9a 5f be 4a 0d 43 3d
       -0.18788525 -0.016211526 -0.21836193 0.047620095
0001e0 71 0f 31 bd 2a bd 31 be d3 fe b5 bd b4 10 81 bd
       -0.043227617 -0.17357317 -0.088864945 -0.06302014
0001f0 22 13 4a 3e f9 3a 1e 3e ef 1d a7 3e 6b 45 d4 3d
       0.19733861 0.15452184 0.32640025 0.10364803
000200 2a 72 00 be 09 84 b5 3e fc 33 a5 be 18 04 d9 bd
       -0.1254355 0.35452297 -0.32266223 -0.10596484
000210 ef 25 c0 3d b8 4a 9e be 98 57 0c 3e 0a 15 07 3e
       0.09382235 -0.3091638 0.1370529 0.1319162
000220 a5 8c c2 bd 2d 5f 0f 3c 5e 51 36 be e1 30 67 3e
       -0.09499482 0.008750719 -0.17804477 0.2257724
000230 a1 0c c2 3e 5c b3 0f be 24 02 a8 3e ea c6 ad bd
       0.3790026 -0.14033264 0.32814133 -0.084852055
000240 05 be 21 3d eb 24 a0 3e e8 bd 03 bd 7e 4f 5e 3d
       0.039487857 0.31278166 -0.03216353 0.05427503
000250 1a 5c fb 3d df 4c 87 3e 11 86 a6 3e a1 9f 0d be
       0.12273426 0.26425835 0.3252416 -0.13830425
000260 21 f5 8a bd 8d 00 63 3e 9c 00 4f 3d 8e 12 9f 3c
       -0.06785036 0.22168179 0.05053769 0.019418027
000270 81 8d c8 3e 25 a5 df 3d a8 1e 54 be 93 7c 06 be
       0.3917046 0.10920171 -0.2071482 -0.13133459
000280 1d a9 e0 3e 58 72 c4 be 35 5b 39 3e 5d 19 f7 bd
       0.43879023 -0.38368487 0.18101199 -0.120653845
000290 13 87 26 bd 4e 82 23 3c ae 08 40 be 46 42 6a bd
       -0.04065616 0.0099797975 -0.18753311 -0.05719211
0002a0 21 5c 20 3e 2b 09 7a 3d 4b 9d ad 3d 63 db b5 3d
       0.15660144 0.0610439 0.08477267 0.08879735
0002b0 d7 14 3e be 14 1c 1a 3e de d3 15 3e da ed a3 be
       -0.18562637 0.15049773 0.14631602 -0.32017404
0002c0 e1 21 e9 be dc 55 88 bd 91 b5 6c 3d 5d a4 11 3e
       -0.4553366 -0.066570014 0.057790343 0.14222856
0002d0 36 a2 89 3d 8e db 8b bc fd ad 21 be f8 6d 0d 3b
       0.067203924 -0.017072465 -0.15789028 0.002158044
0002e0 32 dd 11 3d 63 9e d6 3c 7d 95 a8 be de 41 8e be
       0.03561134 0.026198572 -0.3292655 -0.27784628
0002f0 7a ff 47 3e 02 55 c7 3c 10 29 00 3e 7c ed 34 3c
       0.1953105 0.024332527 0.12515664 0.011042949
000300 36 8d 93 be f8 c4 09 3d 8d bd 8d be 62 3b a9 3e
       -0.28818673 0.03363511 -0.27683678 0.33053118
000310 b1 f4 ce 3c 80 af 2d 3e 37 a4 64 3e e5 3b 7a 3e
       0.025263162 0.16961479 0.22328268 0.2443691
000320 5a 62 9e bc 99 c6 9b bb 01 05 5f be e3 96 38 3e
       -0.019334007 -0.0047538993 -0.21779253 0.18026309
000330 9b ac c8 bb 77 8a cd 3c 87 af 4c be bf ee a3 bd
       -0.006124092 0.02509044 -0.19988833 -0.080045216
000340 d7 07 d6 3d 62 c0 8b bc 9f 3d 26 3e a4 1d 56 3d
       0.10450714 -0.017059509 0.16234444 0.05227436
000350 28 06 c0 bc c2 5d 85 be 25 81 dd bd 4b 3b 67 3e
       -0.023440436 -0.26048094 -0.10815648 0.22581212
000360 dc 63 6f 3e fb 66 93 3d 37 96 c0 3e 0f f1 94 3e
       0.23377937 0.07197376 0.37614605 0.29090163
000370 51 f9 d1 bd a9 01 e0 3d 67 b2 12 3e 2d 86 8d 3e
       -0.102526315 0.10937817 0.14325868 0.2764143
000380 8b 2a b1 3e 0b a0 b1 3d 86 49 6c 3c 7b 83 b0 3c
       0.3460277 0.08673104 0.014421826 0.02154707
000390 0d 46 96 3d cb ff e7 bc af 74 2c 3d 2f d9 7d 3c
       0.0733758 -0.028320214 0.042103466 0.015493675
0003a0 97 e1 8d 3e 4c c5 fd 3e b9 61 f2 3e a4 ff b5 3d
       0.27711174 0.49564588 0.4734018 0.0888665
0003b0 3d 72 d9 bd ef 20 2c be 10 08 95 be 8d c4 8b bb
       -0.10617492 -0.16809438 -0.29107714 -0.004265374
0003c0 53 35 37 bd f5 41 8c bd e7 a3 43 be f3 cd 26 be
       -0.04472859 -0.06848518 -0.19105493 -0.16289501
0003d0 ca 80 87 3d df 47 7b be 67 e4 82 be 92 8f e5 3d
       0.066163614 -0.24539135 -0.25564882 0.112090245
0003e0 09 06 3f 3e b7 17 91 3d aa c4 04 3e c6 a4 af 3c
       0.18654646 0.07084601 0.12965646 0.021440875
0003f0 b7 c4 08 be ec 8b 47 3d dd 4b 2f be 42 08 dc 3d
       -0.13356291 0.048717424 -0.17118783 0.107437626

bias f4 [64]
000000 1f 15 aa be 26 16 91 be d8 aa 71 3c 7e c2 1b be
       -0.3321924 -0.2833721 0.014750205 -0.15210912
000010 6a da b0 bd 37 7b 28 bd 12 31 8a be 53 63 f6 bd
       -0.08635409 -0.04113313 -0.26990563 -0.12030663
000020 86 26 45 bc c3 14 89 be fd 43 18 3d 94 75 94 bd
       -0.0120331105 -0.26773652 0.037174214 -0.07248989
000030 af 61 4e be c1 b0 8c be ee fa a9 be 01 1f 21 bd
       -0.20154451 -0.27478603 -0.33199257 -0.03933621
000040 81 54 6c bd e9 e4 cf bd ac 35 35 be 83 e2 f4 3b
       -0.057697777 -0.10151083 -0.17696255 0.0074732914
000050 a5 74 11 bd 6b 24 66 be 17 c5 29 be 9d c0 ba bd
       -0.03551163 -0.2247483 -0.1657909 -0.09118769
000060 96 5f 87 bd 58 14 55 be cd ae 25 3d cb 84 0b bc
       -0.066100284 -0.20808542 0.040449906 -0.008515547
000070 3b d3 15 be 73 79 d1 3c 41 72 fe 3d 1b 7e 5c be
       -0.1463136 0.025570607 0.12424136 -0.2153248
000080 e0 3e 51 bc 0d 1e 5e be 6b 93 f5 3d 7c 14 e8 bd
       -0.012771338 -0.21691151 0.11991008 -0.11332032
000090 61 fc a5 bd e9 1a 44 be c9 a0 0d be 97 ec 61 be
       -0.08104778 -0.1915089 -0.13830866 -0.22062908
0000a0 3f 99 35 be 1d d8 7a be d0 7c 2a be e7 68 71 be
       -0.1773424 -0.24496503 -0.16649175 -0.23575173
0000b0 01 62 5c be a6 aa a8 bd 0b 27 4d be f6 f7 00 bd
       -0.2152176 -0.082356736 -0.20034425 -0.031486474
0000c0 81 ac bc bd f7 70 f5 bc e9 4f 66 be d1 2c c2 bd
       -0.0921259 -0.029961092 -0.22491421 -0.09481204
0000d0 e4 12 97 bd 09 e1 8e be 63 be b4 be ab 22 49 be
       -0.0737665 -0.27906063 -0.35301504 -0.19642131
0000e0 6a ee 83 be 91 56 0e be 72 f6 67 be 97 8a 7d be
       -0.25767833 -0.1390021 -0.22652605 -0.24759899
0000f0 6d a3 20 be 67 dc 34 be c2 ad d8 bd af 95 85 be
       -0.15687342 -0.17662202 -0.10580017 -0.26090762

weight f4 [32, 64]
000000 2e 32 17 be ea dd 9b 3e 93 30 40 3e 63 91 06 be
       -0.14765236 0.30442744 0.1876853 -0.13141398
000010 66 ce 17 be bb b9 d6 3d e6 49 2a 3d f2 90 a0 3d
       -0.14824829 0.10484644 0.04157438 0.07840146
000020 b2 b8 2c 3d e7 b3 9a bc 5a 95 4d bd 70 9e 17 be
       0.042168327 -0.018884612 -0.05019126 -0.14806533
000030 72 e7 b5 3d be c7 34 3e da b7 04 be 46 b7 1e be
       0.08882035 0.1765432 -0.12960759 -0.15499601
000040 0a 98 55 3d 07 53 ce bd fe a4 67 be 75 df f2 b9
       0.05214695 -0.1007443 -0.22621533 -0.00046324325
000050 50 84 c6 3d f1 42 79 be f9 3b 56 3d 8d c9 fe bd
       0.09693205 -0.24341942 0.052303288 -0.124407865
000060 b6 7c 05 3d c6 f4 e7 bd 41 48 19 be d5 12 c7 bd
       0.032589637 -0.11325984 -0.14968969 -0.09720389
000070 41 6e 51 3c 29 48 bc 3d 68 f5 a1 3c 7e 30 e1 bd
       0.012782634 0.09193451 0.01977034 -0.10995577
000080 7f 3a e4 bd 8a 26 42 3e c0 77 0a 3e 49 71 00 be
       -0.1114397 0.18960014 0.13522243 -0.12543215
000090 72 c1 84 be 40 bd ad bd c4 41 89 bd 22 8d 71 be
       -0.25928837 -0.08483362 -0.06701997 -0.23588994
0000a0 11 2d 3f 3e 7a cf 98 3e 05 77 19 3e ce 94 1b be
       0.18669535 0.29845792 0.14986809 -0.15193483
0000b0 d0 34 40 be b5 7c 50 3d 01 76 50 be 7f f0 ca 3d
       -0.18770146 0.05090018 -0.20357515 0.09909152
0000c0 37 39 a9 3d bc c4 a6 be 59 84 0d be e7 c1 44 3e
       0.08262866 -0.3257197 -0.13820018 0.19214593
0000d0 69 f4 78 3e 53 1e 47 3d af 23 1d 3d 34 85 b8 3d
       0.24311985 0.048612904 0.03836411 0.090097815
0000e0 57 03 bc 3d b3 a4 45 be e2 08 03 3e 2d f6 fc 3d
       0.091803245 -0.19301109 0.12796357 0.12351642
0000f0 16 eb 81 be 20 ad f5 3d e5 30 99 be 70 31 0d 3e
       -0.2537467 0.119959116 -0.29920116 0.1378839
000100 98 97 26 be be 6f 2c 3e ff 65 60 3c 0f e5 ac 3d
       -0.16268766 0.16839501 0.013696193 0.08442127
000110 bc fb 0d 3e 7b ee 28 3d 89 26 81 be 27 2d 34 3c
       0.1386556 0.041243058 -0.25224712 0.010997093
000120 b0 fc 45 be c7 2b 52 bc 89 99 4d 3e b4 33 e1 3d
       -0.19334674 -0.01282782 0.200781 0.1099619
000130 8d f5 71 bd e6 80 13 bd d1 08 8d be c9 b5 6e be
       -0.059072066 -0.0360116 -0.2754579 -0.23311533
000140 af a1 af bd 8b 70 c7 bd 55 c9 ea 3c c9 85 fe bd
       -0.085757606 -0.09738263 0.028660456 -0.12427861
000150 c2 49 1d 3c 21 c4 be bd 6c 77 6c bd be 76 a2 be
       0.009600105 -0.09314752 -0.057731077 -0.31731218
000160 9e 6a 21 bc 5d a9 9e bd 12 9c d2 bd de 84 86 bc
       -0.00985208 -0.07747147 -0.10283674 -0.016420778
000170 98 42 64 be 6c 4d 2a 3e f1 3a 38 3e 99 3c d7 bd
       -0.22291028 0.16631097 0.17991234 -0.10509605
000180 23 58 95 3d fb 52 12 3e 5a aa 42 3e 32 d8 65 bc
       0.07292201 0.14289467 0.19010296 -0.014028596
000190 86 fd c6 bd f3 ea 02 3e ce 1d 01 3d 15 56 2d 3d
       -0.097163245 0.12784939 0.031522565 0.042318422
0001a0 06 8e 0e bd 7f 1a 5f be fe c9 01 bc dc 70 dd 3c
       -0.034803413 -0.21787451 -0.007921694 0.027031355
0001b0 41 f8 76 bc 4b 0f 1d 3d 92 fe f8 bc e4 31 6b bd
       -0.015073837 0.038344663 -0.030394826 -0.057420626
0001c0 73 3f de 3d 6b d9 da 3d 3b 2c 46 be a5 00 ee bd
       0.10851946 0.106860004 -0.1935281 -0.11621217
0001d0 f1 04 02 be 9b 02 24 3e 70 eb 85 bd 9e 21 0e 3d
       -0.12697197 0.16016619 -0.06539047 0.03470003
0001e0 d1 87 55 be 3e 93 9e bd ad 47 5e 3e 95 45 1c be
       -0.20852591 -0.07742928 0.2170703 -0.15260918
0001f0 7f cd c9 bc c1 53 d6 3c 88 48 fd bd 23 64 0d 3e
       -0.024634121 0.026162984 -0.1236735 0.1380773
000200 15 6d 6b be 4c 87 bb 3d d2 83 11 bd f9 4f cb bd
       -0.2299083 0.09156665 -0.035526104 -0.09927363
000210 64 3b 9c 3c 04 c1 eb be a6 fe 11 bd dd 55 8b 3c
       0.019071288 -0.46045697 -0.035643242 0.017008716
000220 3d 7b ce bd 66 fd 41 3f 4c c6 20 3c 13 38 b2 bd
       -0.100820996 0.7577728 0.009812903 -0.087021016
000230 79 3b a5 bd bd 6f aa 3d 6a 4a 34 bd eb b9 10 3e
       -0.08067984 0.08322094 -0.04401628 0.14133422
000240 c9 72 ab be 91 c0 ab 3e 65 fb 41 bd f9 ec 21 be
       -0.33486012 0.33545354 -0.04735889 -0.15813054
000250 7f 90 72 be 42 7f 9c 3d c4 29 bc 3e ff 6b b2 3d
       -0.23687933 0.0764146 0.36750615 0.08712005
000260 5c 90 73 3c ba b2 e8 3c d4 2d 99 be b8 6d 76 3d
       0.014865961 0.028405536 -0.29917777 0.06016323
000270 b2 ee 95 ba 80 39 b1 bd 89 be 2a 3d 05 a0 ea 3c
       -0.0011438935 -0.086535454 0.041685615 0.028640756
000280 0b 4e 9d 3d 4c ec 79 bc 16 93 04 3d 3d 6a 9c be
       0.07680901 -0.0152540915 0.032366835 -0.30549803
000290 33 ec fd 3e 6e 01 8c be 24 96 29 be 8a 7a 3e 3d
       0.49594268 -0.2734484 -0.1656118 0.04650358
0002a0 7e a7 0f be f6 4b 59 bc 54 28 d0 3d 3a a7 ae 3e
       -0.14028737 -0.013262739 0.10163942 0.3411196
0002b0 72 9e 49 be 3e 94 5e bd 9a 14 8f 3d 57 a8 ac 3d
       -0.19689348 -0.054340594 0.06986351 0.08430546
0002c0 8e b1 98 3c 22 f7 64 be 47 19 51 bd 82 7a ca bd
       0.018639352 -0.22359899 -0.051049497 -0.09886648
0002d0 c6 de a0 bb 7f ec 43 3e 8c 0d 11 3e dd 90 5e 3e
       -0.004909369 0.19133185 0.14165324 0.21734948
0002e0 cb 49 1b bc 93 1b 0b 3e b3 a6 44 3e 98 fa db 3d
       -0.009478043 0.13584737 0.19204216 0.10741156
0002f0 e9 b1 30 be 82 e2 ce 3d 57 c1 96 bc e2 b1 0d 3e
       -0.17255367 0.10101797 -0.018402738 0.13837388
000300 0e cd 9e be 34 4d be bd 75 ae a7 3e 27 4f 5d bd
       -0.3101582 -0.09292069 0.32750288 -0.054030564
000310 53 94 2b 3d 41 56 6d 3e 61 2d d9 be ca c4 de 3d
       0.0418895 0.23177435 -0.42417434 0.10877378
000320 73 38 8b bb 18 f8 51 3e a8 0a 50 bd a3 f8 a7 3d
       -0.0042486726 0.20504797 -0.050791413 0.082017206
000330 26 3c ed 3d ab 29 8a be 6e 89 43 be 40 9a 37 be
       0.11583738 -0.26984915 -0.19095394 -0.17929935
000340 1e 5f 07 3e 9e d2 21 bc 6e 03 78 be 49 f7 9a bd
       0.13219878 -0.009876875 -0.24220058 -0.07566697
000350 4f 2e 2e 3e 6a cb ea bd 65 ab c4 be 74 6d 05 be
       0.17009853 -0.114645794 -0.38412014 -0.13030034
000360 9a 8b b2 bd 7b 62 32 3d 31 4c 13 3e 80 79 16 be
       -0.08718033 0.04355095 0.14384533 -0.14694786
000370 3d 73 07 3c b0 ec 70 3b 00 72 dd 3e a6 13 88 3e
       0.008267221 0.003676217 0.43251038 0.2657749
000380 97 64 c8 bb 11 bf 4f 3e ef 4e eb 3e 96 b9 e8 3d
       -0.006115507 0.2028773 0.4595866 0.11363523
000390 46 92 12 be 7e 58 34 bd 73 4f 34 bd cd 99 83 bd
       -0.14313611 -0.044029705 -0.04402108 -0.064258195
0003a0 ea 7b 64 3d 4d 8c 94 3e 34 a5 db 3d 4c c9 60 bd
       0.055782236 0.2901329 0.10724869 -0.05487947
0003b0 e0 aa 68 3e 00 64 06 bd a6 d0 00 bd d8 3e eb be
       0.22721434 -0.03281021 -0.031448983 -0.45946383
0003c0 ff 5f 32 bd 0d ac 63 3e fd 76 d1 3d a0 fa 2a 3e
       -0.04354858 0.22233601 0.10227773 0.16697168
0003d0 44 73 7b 3d cb 6a 3b 3e 76 7a 9d 3e dc 94 55 be
       0.061389223 0.18302457 0.30757493 -0.20857567
0003e0 fa f3 6e 3e b4 8c e9 be f5 d6 5c 3e 79 e7 18 be
       0.23335257 -0.4561516 0.21566375 -0.1493205
0003f0 b3 c4 4e be 47 dc 0b bf 5f 88 02 be 75 db 9f be
       -0.20192222 -0.5463299 -0.12747334 -0.3122212

bias f4 [32]
000000 af ff 5a 3d 4f 9c 01 be 91 f3 0f be df 1f 65 bd
       0.053466495 -0.12657283 -0.14057757 -0.055938598
000010 d3 11 0a be 52 71 4a be ef 68 a8 bd 7f b1 bd bd
       -0.13483362 -0.19769791 -0.082231395 -0.0926237
000020 eb 9f 3b be c0 5d 29 bd 44 b4 ab bd 6f 37 88 3d
       -0.18322723 -0.041349173 -0.08383992 0.06651198
000030 50 14 8f bd 94 fe 7d bd 8a 3d cd bb 3a 4f cc bd
       -0.06986296 -0.062010363 -0.0062634395 -0.09976049
000040 9c 66 9f 3d b1 67 bb 3c 93 7e 12 be 60 af 39 be
       0.07783243 0.022876592 -0.14306097 -0.18133307
000050 5a dc a4 bd a0 da 2e be 05 16 df bc 3a 21 34 be
       -0.08049841 -0.17075586 -0.02723218 -0.175908
000060 53 d1 da bd d7 30 0c be e1 38 63 be f7 54 3c 3d
       -0.10684457 -0.13690506 -0.22189666 0.045979466
000070 52 a9 a7 bd 10 e4 06 be 9a ad 13 3d 52 7e 12 be
       -0.08186592 -0.13172936 0.03605423 -0.14306

weight f4 [6, 32]
000000 e3 a1 c9 bd 57 48 df bc af 36 dc 3d 61 66 cd bc
       -0.098453306 -0.027256174 0.107526176 -0.025073232
000010 b8 3a 2d bd 39 11 c3 3b 4b 0f a8 3c 51 67 bc bc
       -0.042292327 0.005952981 0.020515105 -0.022998484
000020 f9 a7 0b 3d 5f e3 3d bb ff 4d 40 3d ab 20 0c bd
       0.034095738 -0.0028974635 0.046949383 -0.034210842
000030 5a 59 94 3d 1f e9 f9 3d 9f 57 8e 3d 02 3c 88 3d
       0.07243605 0.122026674 0.06950306 0.066520706
000040 14 d7 59 bd 74 10 a6 bd 82 26 c1 bd 79 ba 85 3d
       -0.05318363 -0.08108607 -0.09431173 0.065297075
000050 a0 8f 0b 3e ff 96 d8 3c 5f b7 f7 bd fb 3d 7e bd
       0.13629007 0.026439188 -0.12095522 -0.062070828
000060 f9 42 7a bd 4a 21 07 be e3 57 aa 3d 09 7b ca 3d
       -0.061099026 -0.13196293 0.08317544 0.09886748
000070 52 5b 95 3d a6 a3 90 bd 94 53 99 bd 2b d2 02 3e
       0.072928086 -0.070624635 -0.074866444 0.12775485
000080 cd bc 59 bd 31 38 31 3b ea b3 cb bc 40 09 bf bd
       -0.05315857 0.002704155 -0.024866063 -0.09327936
000090 e0 a9 7d 3d 22 7b ab bc 83 41 07 3e 01 5e 13 3d
       0.061929584 -0.020932738 0.13208584 0.03597832
0000a0 92 53 e0 bd 66 96 ba bd de 7c a5 3d 0b fc de 3d
       -0.1095344 -0.091107175 0.08080457 0.10887917
0000b0 89 4c 99 3d 09 2a dd 3c 9d bd 94 3d 58 d6 ba b9
       0.07485301 0.026997583 0.07262728 -0.00035636383
0000c0 68 d9 e7 3d 78 35 7c be 21 96 a6 3d 19 a2 82 bb
       0.11320764 -0.24629772 0.081341036 -0.0039866087
0000d0 62 a6 3c bd 46 81 22 3d e2 d8 c0 3d 04 c1 82 3c
       -0.046057113 0.039674066 0.09416367 0.015961178
0000e0 86 9e f0 bc f0 fa 02 3d 44 f9 94 bd 4f d9 88 3e
       -0.029372465 0.031977594 -0.07274106 0.26728293
0000f0 40 99 4f bd 7a 12 33 be 30 43 04 bc 1c 9c 41 3d
       -0.05068326 -0.17487517 -0.008072659 0.047268018
000100 b7 7e b6 3d f4 af 80 3d 5b a6 21 be 70 5f 30 3e
       0.08910888 0.062835604 -0.15786116 0.17223907
000110 cc 31 68 bd b2 e5 9c be 42 9e 91 bd 52 07 dd 3d
       -0.056688115 -0.30643994 -0.071102634 0.10792412
000120 bb 8e 2e be d5 5b 7b 3e 84 18 3f 3e c9 19 4d be
       -0.17046635 0.2454675 0.18661696 -0.20029368
000130 3d c3 ad 3e 52 c7 1b 3e 99 1f 0e 3e 55 b4 47 bd
       0.33938017 0.15212753 0.13879241 -0.048755962
000140 fc 1f ba bc 2e ee 57 bd 95 9a 81 bd 4d 6b cd 3c
       -0.02272033 -0.05271738 -0.06328312 0.025075579
000150 eb 32 27 3e 74 84 d6 3c 8d 8f 37 3d da c1 11 be
       0.16328017 0.026186205 0.044814635 -0.14234105
000160 54 03 3d bd 5a 33 f0 3d ce 66 81 bd e1 5b 9a bd
       -0.046145752 0.117285445 -0.063184366 -0.07537056
000170 89 aa 1b 3d d1 cf 1d be 0d d2 c5 bd bb f2 13 be
       0.038004432 -0.15411307 -0.09659205 -0.14448063
000180 9d 4b 1b 3d bd 38 25 be 6c 22 d5 bc 56 a6 d3 bc
       0.037913907 -0.16134925 -0.02601739 -0.025836151
000190 dc ce a2 3d 20 f0 80 3c eb b9 70 3d bc 63 ea 3c
       0.079496115 0.0157395 0.058771055 0.02861201
0001a0 53 30 d3 3d 1d f9 0e 3c 8b 05 63 3d a0 73 c8 bc
       0.103119515 0.008726385 0.055425208 -0.024469197
0001b0 4d 58 28 3b 09 5e b0 bd 82 be ad bd 67 0d 15 3d
       0.0025687397 -0.08611686 -0.08483602 0.036389735
0001c0 f2 b8 07 be 52 7d 6d bd 10 0f 64 bd 3d 97 bb 3d
       -0.13254145 -0.057980843 -0.055678427 0.09159706
0001d0 47 55 b5 bc 52 34 81 3d 28 77 ff bd c5 f7 21 3b
       -0.02213539 0.063088074 -0.12473899 0.0024714333
0001e0 c0 40 78 3d 38 06 b0 3c 90 1a 10 3e bc 10 28 3d
       0.060608625 0.02148734 0.14072633 0.041031584
0001f0 0d 0c c5 bd 27 25 d0 bd 42 a4 ad bd bd 41 09 be
       -0.09621439 -0.10163336 -0.08478595 -0.13403983
000200 8a bb 07 3e 0d 56 68 bb b9 dc 37 3d e4 8b 99 be
       0.13255134 -0.003545168 0.044888232 -0.2998954
000210 43 a5 24 bd eb 4d bc bd ae a4 50 3e 8f c6 5b b9
       -0.04019667 -0.09194549 0.2037532 -0.00020959436
000220 fd 7a d9 bd ac 5d a1 3c 90 df 17 bd 63 d5 be 3d
       -0.10619161 0.019697987 -0.03707844 0.09318044
000230 95 c4 5c 3c 8b 00 65 bd a8 4a ad 3d 9c d0 78 3c
       0.013474603 -0.05590872 0.08461505 0.015186455
000240 7b 51 16 3e 7f 9e 1a be d6 99 05 be 1b 20 84 3d
       0.1467952 -0.15099524 -0.13046965 0.06451436
000250 49 dd aa bd 3e 9d 3d bd 87 e2 97 3d c7 a4 ea 3d
       -0.08342988 -0.046292536 0.074162535 0.1145721
000260 8b 5a b6 3d 4a 76 e0 3d 16 b7 18 3e de bf 60 3e
       0.089039885 0.10960062 0.14913592 0.21948192
000270 1d f6 51 bd 42 02 32 3d 6f 3f c3 bb 0c ea 21 bd
       -0.051260103 0.043459184 -0.0059584896 -0.039529845
000280 25 41 14 3e b9 ac 23 bd 83 20 e9 3d 5b cd 1d 3e
       0.14477976 -0.039959643 0.11383154 0.15410368
000290 50 fc 5f 3e 52 e2 85 be 1d 4a 88 3d e3 8f 2d be
       0.21873593 -0.2614923 0.06654761 -0.1694942
0002a0 64 a3 0a be 17 8d e6 3d 94 f3 71 3e 11 7b 31 be
       -0.13538891 0.112573795 0.23628074 -0.17332102
0002b0 b6 74 a5 3d bb 15 88 3b 71 67 3c be ee 3b 2a 3e
       0.080789015 0.004152981 -0.18398835 0.16624424
0002c0 74 09 45 3d 28 56 7e 3d b9 e5 86 3d bd d4 9d 3e
       0.04810472 0.062093884 0.06586785 0.3082637
0002d0 3f 69 c9 bd 9d 9f 6d be 47 1f 8f 3d 5a 6a a3 ba
       -0.09834527 -0.23205419 0.069883876 -0.0012467608
0002e0 0f de 5d be b2 0b 48 3d 6d 2d 2b be 28 de 04 bd
       -0.2166674 0.04883928 -0.16716547 -0.032438427
0002f0 b3 a2 fc bd 87 2f 1e bc db 66 76 be a5 bf ed bc
       -0.1233572 -0.009654886 -0.24062674 -0.029022047

bias f4 [6]
000000 2e 72 51 be b7 76 8d bd 2d 21 25 3e 96 c2 bc bd
       -0.20453712 -0.06907409 0.16125937 -0.09216802
000010 3e 32 15 be f9 9e 5c bd
       -0.14569947 -0.053862546
